src/main/assets/model.tflite (tflite, 8368 bytes, 6 tensors)

sequential_2/dense_8/MatMul f4 [2, 64]
0.08402559 -7.397157 8.0079975 0.17763908 -5.362253 8.134402 -7.11147 7.269661
8.450944 8.828674 -7.7041764 0.25079602 8.104485 -7.013762 -7.1842046 -0.09473914
0.21439457 0.21991177 -7.6242137 0.25758088 9.899703 9.07439 -0.029256819 -7.850599
8.734795 -0.047124896 0.08972 8.147789 -0.011030376 -7.8000546 0.16594125 -7.068745
-7.6148896 -7.2555885 0.032695085 -0.092932224 8.823641 0.28714645 -7.335811 7.6777573
8.450003 -6.8508897 8.634448 -7.41116 0.22224748 -7.6918273 -7.8524733 -7.1066704
8.525733 -0.2348365 -7.710713 0.075338244 -0.06110322 7.6511207 -8.380873 8.37116
8.296987 6.5746484 0.11703369 -7.725936 0.2205995 -7.57222 -7.217605 8.041639
-0.2705363 7.4319315 -8.173462 -0.081046954 5.15943 -7.874017 7.1868463 -6.9413834
-8.088243 -8.6622925 8.114755 0.28690404 -7.8488364 7.0297494 7.06689 -0.11339046
0.22670001 -0.08465299 7.7805195 0.26545608 -9.989152 -9.07093 0.18596686 7.5413613
-8.624887 0.08371413 -0.27251288 -8.382433 0.13009107 7.7098703 0.033637233 7.265916
7.7651706 7.819272 0.10774776 -0.03123802 -8.854952 0.049900413 7.184931 -7.928737
-8.423941 6.769673 -8.388497 7.647983 0.28538698 7.624367 7.9288926 7.4294386
-8.321015 0.15819298 7.8358145 0.18564305 -0.017633041 -7.7545047 8.319977 -8.755424
-8.170565 -6.6338487 -0.081422776 7.7182293 0.1992056 7.2508416 7.4644523 -8.543851
00000000: 9c15 ac3d 83b5 ecc0 c220 0041 05e7 353e
00000010: 9497 abc0 8326 0241 2a91 e3c0 10a1 e840
00000020: 1137 0741 4042 0d41 9d88 f6c0 5668 803e
00000030: f8ab 0141 bd70 e0c0 01e5 e5c0 9806 c2bd
00000040: 408a 5b3e 8d30 613e 8ff9 f3c0 a4e1 833e
00000050: 2f65 1e41 b430 1141 ffab efbc 1b38 fbc0
00000060: b8c1 0b41 0906 41bd 1fbf b73d 585d 0241
00000070: c0b8 34bc 0c9a f9c0 81ec 293e 2933 e2c0
00000080: 2dad f3c0 c82d e8c0 48eb 053d 4053 bebd
00000090: a22d 0d41 dc04 933e f7be eac0 30b0 f540
000000a0: 3633 0741 7d3a dbc0 b326 0a41 3928 edc0
000000b0: d894 633e 7323 f6c0 7647 fbc0 d869 e3c0
000000c0: 6769 0841 fb78 70be 29be f6c0 f04a 9a3d
000000d0: 5f47 7abd fbd5 f440 0e18 06c1 45f0 0541
000000e0: 75c0 0441 8563 d240 5caf ef3d de3a f7c0
000000f0: d6e4 613e a04f f2c0 9ff6 e6c0 8eaa 0041
00000100: bc83 8abe 62d2 ed40 80c6 02c1 f2fb a5bd
00000110: 0d1a a540 f2f7 fbc0 a5fa e540 d01f dec0
00000120: 7169 01c1 c098 0ac1 09d6 0141 16e5 923e
00000130: ab29 fbc0 b5f3 e040 f623 e240 4239 e8bd
00000140: 0c24 683e 8c5e adbd 04fa f840 dce9 873e
00000150: 91d3 1fc1 8722 11c1 196e 3e3e d552 f140
00000160: 8aff 09c1 5072 ab3d cf86 8bbe 721e 06c1
00000170: 9836 053e 42b7 f640 32c7 093d 6282 e840
00000180: 477c f840 7a37 fa40 dcaa dc3d e0e6 ffbc
00000190: e2ad 0dc1 6064 4c3d f4ea e540 37b8 fdc0
000001a0: 76c8 06c1 29a1 d840 4937 06c1 47bc f440
000001b0: 3e1e 923e d1fa f340 7db9 fd40 f6bd ed40
000001c0: e122 05c1 57fd 213e febe fa40 3619 3e3e
000001d0: 2b73 90bc e724 f8c0 a01e 0541 3716 0cc1
000001e0: a2ba 02c1 7d48 d4c0 fcc0 a6bd bcfb f640
000001f0: 8efc 4b3e e506 e840 cbdc ee40 9db3 08c1

sequential_2/dense_8/BiasAdd/ReadVariableOp f4 [2]
0.17432532 -0.17434771
00000000: 5682 323e 3588 32be

sequential_2/dense_7/BiasAdd/ReadVariableOp f4 [64]
-0.022516 -0.02609368 0.04031255 -0.012516154 -0.021148864 0.03221662 -0.0242267 0.032027263
0.03901892 0.043046482 -0.026436657 -0.015369121 0.03808874 -0.02570794 -0.024484156 -0.022907984
-0.014678069 -0.022991993 -0.026803866 -0.015357733 0.03020042 0.041811924 -0.015093271 -0.026515044
0.041230254 -0.00835418 -0.009402605 0.0395706 -0.020288523 -0.026620759 -0.0073685353 -0.026374154
-0.026344636 -0.026649216 -0.02419522 -0.020882402 0.038464297 -0.0097358 -0.024805913 0.041209478
0.027415685 -0.022913389 0.04037522 -0.024855508 -0.018679935 -0.02726094 -0.025182627 -0.024769468
0.040223513 -0.021082476 -0.026573753 -0.013368037 -0.015747864 0.040160652 -0.030300152 0.0401006
0.04063922 0.03677152 -0.015734542 -0.02696833 -0.016020019 -0.026203273 -0.023109645 0.040569443
00000000: 7973 b8bc 6ac2 d5bc c61e 253d 8e10 4dbc
00000010: 6240 adbc 93f5 033d 1377 c6bc 052f 033d
00000020: 4ed2 1f3d 8251 303d b091 d8bc c4ce 7bbc
00000030: f002 1c3d 7599 d2bc ff92 c8bc 86a9 bbbc
00000040: 497c 70bc b459 bcbc c893 dbbc 009f 7bbc
00000050: df66 f73c fb42 2b3d c449 77bc 1436 d9bc
00000060: 0ee1 283d f8df 08bc 620d 1abc c814 223d
00000070: 1e34 a6bc c713 dabc c173 f1bb 9c0e d8bc
00000080: b5d0 d7bc 754f dabc 0e35 c6bc 9211 abbc
00000090: bd8c 1d3d e882 1fbc c535 cbbc 45cb 283d
000000a0: dc96 e03c dcb4 bbbc 7d60 253d c79d cbbc
000000b0: aa06 99bc 5652 dfbc cc4b cebc 57e9 cabc
000000c0: 69c1 243d 28b5 acbc 33b1 d9bc 9c05 5bbc
000000d0: aa01 81bc 7f7f 243d 0638 f8bc 8740 243d
000000e0: 5075 263d bc9d 163d bae5 80bc b0ec dcbc
000000f0: 6a3c 83bc 3fa8 d6bc 7050 bdbc 252c 263d

sequential_2/dense_6/BiasAdd/ReadVariableOp f4 [64]
-0.009613528 -0.12708506 -0.14231011 -4.382937e-14 -0.014363928 -0.003142254 -0.006972645 -0.024646873
-0.010554324 -0.0010110987 -0.017312458 -0.012523341 -0.0051760245 -8.168452e-12 -0.008731398 -0.16623741
-0.013862636 -0.088200696 -0.19486102 -0.000111965805 -0.0042502712 -4.5669857e-21 -0.008122236 -1.6804682e-13
-0.011633512 -0.22819564 -0.14147733 -0.0098889135 -3.582091e-15 -8.462912e-06 -0.20412529 -2.4383332e-18
0.44851068 -1.3114273e-07 -0.2015145 -0.006090718 -0.005346919 -0.3224277 -0.22652137 -0.005994569
-0.015849294 -1.92169e-08 -0.27010345 -6.479263e-14 -0.013602066 -0.11492188 -0.03151835 -1.6203063e-15
-1.21136126e-20 -0.29921946 -1.3084104e-13 -0.002310608 -0.009390584 -0.040697817 -0.020318607 -0.0052647106
-0.002988884 -0.18030499 -0.0057888627 -0.0165968 -0.6164204 0.30762485 -0.27082625 -0.005646937
00000000: 0f82 1dbc 9622 02be beb9 11be d363 45a9
00000010: ae56 6bbc 46ee 4dbb c97a e4bb 3de8 c9bc
00000020: 0bec 2cbc d886 84ba dbd2 8dbc b32e 4dbc
00000030: a49b a9bb 70b3 0fad 230e 0fbc 243a 2abe
00000040: 1c20 63bc 91a2 b4bd a689 47be 2fcf eab8
00000050: dc45 8bbb 2d89 ac9d 2013 05bc 3334 3daa
00000060: 7c9a 3ebc 1eac 69be 6fdf 10be 1c05 22bc
00000070: f50e 81a7 eefb 0db7 3806 51be d0ea 33a2
00000080: 31a3 e53e 3dd0 0cb4 d159 4ebe a594 c7bb
00000090: 3535 afbb 3e15 a5be 38f5 67be 176e c4bb
000000a0: 61d6 81bc 6912 a5b2 004b 8abe 69e6 91a9
000000b0: 33db 5ebc 2a5c ebbd 6319 01bd c082 e9a6
000000c0: d6d1 649e 4b33 99be 5d50 13aa 926d 17bb
000000d0: f7da 19bc c1b2 26bd 3573 a6bc 9883 acbb
000000e0: 27e1 43bb dfa1 38be 80b0 bdbb 03f6 87bc
000000f0: bacd 1dbf 0181 9d3e bda9 8abe f109 b9bb

sequential_2/dense_6/MatMul f4 [64, 4]
3.9194563e-33 -6.942609e-34 -1.5551206e-33 3.5717e-33 -1.6168368e-33 -2.65536e-33 1.7011754e-33 1.8945417e-33
-1.5720387e-33 -2.733189e-33 1.7967262e-33 1.7519272e-33 4.127666e-33 -1.252059e-33 -8.414679e-34 -3.3179665e-33
3.438207e-33 -1.7818931e-33 -1.7372488e-33 -2.4835922e-33 -3.3345383e-35 2.586174e-33 -1.6286965e-33 3.5330026e-33
1.5321586e-35 -1.7670285e-33 -1.92574e-33 1.9788544e-33 3.786955e-33 1.97197e-33 -1.2976426e-33 2.8330106e-33
4.191483e-33 -1.9015447e-33 -1.6457536e-33 -4.5840485e-33 -5.557088e-34 2.3168604e-33 -1.6055278e-33 3.721566e-33
-1.6233537e-33 2.0888524e-33 -1.9492762e-33 1.1667285e-34 -2.441112e-33 -2.5419529e-33 -2.3293627e-33 -1.6450112e-33
2.3884804e-33 2.188588e-33 -1.7210776e-33 3.1834385e-33 3.49629e-34 1.0796923e-33 5.872549e-33 -1.609817e-33
-1.9845785e-33 -1.5853378e-33 2.7070371e-33 -3.882437e-33 -2.4210449e-33 -2.2748396e-33 1.7529627e-33 1.9834432e-33
2.3106408e-33 -3.9944892e-33 -1.7701672e-33 5.05698e-33 -1.8253936e-33 -2.9770304e-33 1.9512784e-33 2.0167376e-33
-1.5020503e-33 -2.625464e-33 1.5717197e-33 1.6959926e-33 3.954544e-33 -1.6708578e-33 6.2266303e-34 -4.9591976e-33
-2.1142533e-34 2.1805591e-33 -1.6426762e-33 2.034021e-33 7.0566804e-34 -2.6393391e-33 2.4075094e-33 -2.0134451e-33
2.1558032e-33 2.1088944e-33 -1.7497595e-33 -2.2829487e-33 2.045587e-33 -9.993322e-34 -8.9642795e-34 -6.2551866e-34
3.434284e-33 -1.3996963e-34 4.4682924e-33 -4.0439915e-33 -1.5007366e-33 -2.7376683e-33 1.3845357e-33 1.5791718e-33
-1.573457e-33 -3.094966e-33 1.745725e-33 1.9298436e-33 -3.2138534e-33 4.6097796e-34 -1.6667026e-33 5.827831e-33
-1.2637673e-33 -5.5001513e-33 5.845583e-34 -5.0939823e-34 4.7623894e-33 -4.7305846e-34 8.861375e-34 4.0434e-33
1.9208173e-33 -2.9289029e-33 1.9507861e-33 2.3770391e-33 1.5929339e-33 1.9526923e-33 -5.775885e-33 4.67444e-33
-0.1486533 -0.0019627674 -0.48641342 -0.21830347 3.7880184e-33 -3.246048e-33 1.4415548e-34 5.0989936e-33
-2.5055223e-33 -2.137632e-33 1.7749759e-33 2.1572435e-33 3.3927467e-33 -8.603167e-34 -1.6928838e-33 3.3150513e-33
5.178173e-33 2.0990198e-33 -1.706839e-33 1.8249785e-33 -0.5979882 0.0007677435 0.55420065 0.80516696
-1.3395381e-33 -3.0038935e-33 1.4792356e-33 1.791956e-33 4.6252213e-33 -9.5669766e-35 -5.2293967e-33 7.6414025e-34
4.6270187e-33 2.6937548e-33 -1.3440268e-33 1.19451725e-33 1.9262954e-33 -3.4038077e-33 4.2224014e-34 2.3514927e-33
-0.45662296 0.0011862222 0.45894262 0.51802874 3.3498788e-34 -4.759433e-33 4.8576132e-33 -2.614976e-33
8.458719e-34 1.308519e-33 -5.0758257e-33 1.585861e-33 -2.785333e-33 2.606673e-33 2.096549e-33 2.3539666e-33
2.171916e-33 -1.0029245e-33 2.5246504e-33 -1.796679e-33 -3.6177084e-33 -2.1103231e-33 -1.2126588e-33 -2.5276102e-33
3.2664953e-33 1.3283325e-33 -3.9834164e-33 4.4474858e-33 -0.545983 0.0010587997 0.5109471 0.7302674
4.6847858e-33 4.8698093e-33 -7.944515e-34 4.289555e-33 -9.583461e-34 2.2005879e-33 -1.8345435e-33 -3.1764322e-33
3.4107824e-33 -6.899705e-35 -2.1396626e-33 2.6188842e-33 2.4149145e-33 1.9705659e-33 -2.0020445e-33 5.3887223e-34
-2.0511041e-33 3.839572e-33 3.6624308e-33 -4.8658285e-33 -3.2182633e-33 4.5521764e-33 1.5339817e-33 1.4095581e-33
2.3573443e-33 -2.5428325e-33 -1.3983696e-33 -2.0387958e-33 -2.0205565e-33 -2.626044e-33 1.691675e-33 2.00315e-33
2.2343942e-33 2.4314664e-33 -2.3825138e-33 -1.57853e-33 -4.597101e-33 -8.964508e-34 4.8475433e-33 3.9772704e-33
0.28184387 0.0012851895 0.5404215 0.5759019 -1.2001115 0.00023935483 -0.019753661 0.19221894
-0.45484084 0.001130583 0.46025652 0.50722325 2.825924e-35 4.760149e-33 1.5199231e-33 7.752333e-34
00000000: cfce a209 30b5 6688 c231 0189 d45c 9409
00000010: 5152 0689 4399 5c89 0054 0d09 7264 1d09
00000020: 9199 0289 8010 6389 2444 1509 5f8b 1109
00000030: e074 ab09 b308 d088 16d0 8b88 acd2 8989
00000040: 4ad1 8e09 ad08 1489 3253 1089 2a54 4e89
00000050: 624b 3186 d7d9 5609 8b4e 0789 54c1 9209
00000060: 53ed a205 8acc 1289 f6fb 1f89 9465 2409
00000070: d04d 9d09 2ad3 2309 9d9b d788 795b 6b09
00000080: 7e1b ae09 62f9 1d89 4fb9 0889 f769 be89
00000090: 7aaa 3888 2c7a 4009 cd61 0589 7a96 9a09
000000a0: eadc 0689 fa88 2d09 85f0 2189 b715 1b07
000000b0: b6cc 4a89 5c2d 5389 1184 4189 85a9 0889
000000c0: 5c6d 4609 1ed2 3509 46fb 0e89 203c 8409
000000d0: 4b5e e807 0865 b308 a7ef f309 05bd 0589
000000e0: 51df 2489 68b4 0389 50e4 6009 2745 a189
000000f0: ee21 4989 7dfc 3c89 65a1 1109 2cc7 2409
00000100: e5f5 3f09 b2ec a589 4b0f 1389 090f d209
00000110: d4a5 1789 6f52 7789 1a1b 2209 448b 2709
00000120: 2792 f988 721d 5a89 c892 0209 c6e5 0c09
00000130: ed43 a409 37cf 0a89 50ea 4e08 3cff cd89
00000140: 2884 8c87 5d27 3509 dc77 0889 d8fa 2809
00000150: 997f 6a08 8944 5b89 1002 4809 3e45 2789
00000160: dd18 3309 3933 2f09 455d 1189 f3a8 3d89
00000170: d3f0 2909 e40a a688 d4f1 9488 3edd 4f88
00000180: 92a7 8e09 320d 3a87 099b b909 18fb a789
00000190: 465a f988 c46f 6389 a30b e608 4531 0309
000001a0: bbb7 0289 538f 8089 7707 1109 3c53 2009
000001b0: 8d7f 8589 ab2f 1908 d876 0a89 2114 f209
000001c0: b7fa d188 a477 e489 b840 4208 cf46 2988
000001d0: 69d2 c509 5d33 1d88 1f3c 9308 cef4 a709
000001e0: 4493 1f09 e052 7389 a210 2209 087a 4509
000001f0: f555 0409 2c39 2209 bfeb ef89 2c2b c209
00000200: 9238 18be c6a1 00bb 2e0b f9be f28a 5fbe
00000210: 1f59 9d09 e7d5 8689 919d 3f07 cdcd d309
00000220: 9126 5089 6896 3189 9075 1309 7f37 3309
00000230: dfed 8c09 d3f1 8e88 a8a3 0c89 acb3 8909
00000240: c817 d709 3761 2e09 73cc 0d89 009d 1709
00000250: c115 19bf 6542 493a 18e0 0d3f 6c1f 4e3f
00000260: a691 de88 c08d 7989 b9c7 f508 b0de 1409
00000270: ca1f c009 7855 fe86 7c38 d989 dded 7d08
00000280: e732 c009 d4c9 5f09 9450 df88 2579 c608
00000290: c607 2009 7e63 8d89 3850 0c08 b85a 4309
000002a0: 7cca e9be 037b 9b3a 87fa ea3e 889d 043f
000002b0: 3ca3 de07 f9b2 c589 01c7 c909 643e 5989
000002c0: 698b 8c08 3e6a d908 70d7 d289 89bf 0309
000002d0: 7b65 6789 ce8d 5809 aa2c 2e09 558f 4309
000002e0: 8b6f 3409 b1a3 a688 60bd 5109 2343 1589
000002f0: 1346 9689 9c51 2f89 cd7c c988 53fc 5189
00000300: 56af 8709 04b5 dc08 f376 a589 c8bd b809
00000310: 8bc5 0bbf 6cc7 8a3a 6ecd 023f cef2 3a3f
00000320: 3099 c209 b248 ca09 3b00 8488 5f2e b209
00000330: 893b 9f88 54d1 3609 6d68 1889 9ff1 8389
00000340: a9ad 8d09 f56c b786 97c1 3189 8291 5909
00000350: 8d9f 4809 4db5 2309 c752 2689 2e12 3308
00000360: 2966 2a89 557d 9f09 a521 9809 5d1e ca89
00000370: 72ae 8589 0b17 bd09 5ee0 fe08 f933 ea08
00000380: 2bd7 4309 1140 5389 1158 e888 6460 2989
00000390: 7cdc 2789 c729 5a89 f389 0c09 4a6a 2609
000003a0: 4fa0 3909 92ff 4909 77ee 4589 9f23 0389
000003b0: c3f4 be89 cdf2 9488 ec5b c909 9835 a509
000003c0: d74d 903e ce73 a83a 1059 0a3f 4f6e 133f
000003d0: 419d 99bf 53fb 7a39 6ed2 a1bc 0bd5 443e
000003e0: e6e0 e8be 1230 943a bea6 eb3e 62d9 013f
000003f0: 7c40 1606 96ba c509 618a fc08 c7ce 8008

sequential_2/dense_7/MatMul i1 [64, 64] scale=0.0020911752 zero_point=0
0.0 0.0 0.0 0.0 0.0 0.0 0.0 0.0
0.0 0.0 0.0 0.0 0.0 0.0 0.0 0.0
0.0 0.0 0.0 0.0 0.0 0.0 0.0 0.0
0.0 0.0 0.0 0.0 0.0 0.0 0.0 0.0
0.0 0.0 0.0 0.0 0.0 0.0 0.0 0.0
0.0 0.0 0.0 0.0 0.0 0.0 0.0 0.0
0.0 0.0 0.0 0.0 0.0 0.0 0.0 0.0
0.0 0.0 0.0 0.0 0.0 0.0 0.0 0.0
0.0 0.0 0.0 0.0 0.0 0.0 0.0 0.0
0.0 0.0 0.0 0.0 0.0 0.0 0.0 0.0
0.0 0.0 0.0 0.0 0.0 0.0 0.0 0.0
0.0 0.0 0.0 0.0 0.0 0.0 0.0 0.0
-0.098285235 0.0 0.0 0.0 0.0 0.1254705 0.0 0.0
0.0 0.0 0.06273525 0.0 0.0 0.0 0.0 0.0
0.0 0.10455876 0.0 0.0 0.0 0.0 0.0 0.0
0.0 0.0 0.0 0.0 0.098285235 0.14429109 0.06273525 0.0
0.0 0.0 0.0 0.0 0.0 0.0 0.0 0.0
0.0 0.0 0.0 0.0 0.0 0.0 0.0 0.0
0.0 0.0 0.0 0.0 0.0 0.0 0.0 0.0
0.0 0.0 0.0 0.0 0.0 0.0 0.0 0.0
0.106649935 0.0 0.0 0.0 0.0 -0.13801757 0.0 0.0
0.0 0.0 -0.06273525 0.0 0.0 0.0 0.0 0.0
0.0 -0.11292346 0.0 0.0 0.0 0.0 0.0 0.0
0.0 0.0 0.0 0.0 -0.10874111 -0.15892932 -0.06273525 0.0
0.0 0.0 0.0 0.0 0.0 0.0 0.0 0.0
0.0 0.0 0.0 0.0 0.0 0.0 0.0 0.0
0.0 0.0 0.0 0.0 0.0 0.0 0.0 0.0
0.0 0.0 0.0 0.0 0.0 0.0 0.0 0.0
0.0 0.0 0.0 0.0 0.0 0.0 0.0 0.0
0.0 0.0 0.0 0.0 0.0 0.0 0.0 0.0
0.0 0.0 0.0 0.0 0.0 0.0 0.0 0.0
0.0 0.0 0.0 0.0 0.0 0.0 0.0 0.0
00000000: 0000 0000 0000 0000 0000 0000 0000 0000
00000010: 0000 0000 0000 0000 0000 0000 0000 0000
00000020: 0000 0000 0000 0000 0000 0000 0000 0000
00000030: 0000 0000 0000 0000 0000 0000 0000 0000
00000040: 0000 0000 0000 0000 0000 0000 0000 0000
00000050: 0000 0000 0000 0000 0000 0000 0000 0000
00000060: d100 0000 003c 0000 0000 1e00 0000 0000
00000070: 0032 0000 0000 0000 0000 0000 2f45 1e00
00000080: 0000 0000 0000 0000 0000 0000 0000 0000
00000090: 0000 0000 0000 0000 0000 0000 0000 0000
000000a0: 3300 0000 00be 0000 0000 e200 0000 0000
000000b0: 00ca 0000 0000 0000 0000 0000 ccb4 e200
000000c0: 0000 0000 0000 0000 0000 0000 0000 0000
000000d0: 0000 0000 0000 0000 0000 0000 0000 0000
000000e0: 0000 0000 0000 0000 0000 0000 0000 0000
000000f0: 0000 0000 0000 0000 0000 0000 0000 0000
