src/main/assets/model.tflite (tflite, 10672 bytes, 8 tensors)

model_3/output_b/MatMul f4 [4, 64]
0	0xbe131f56	-0.14367422
1	0x3f20f239	0.628696
2	0x3f1b9e11	0.60788065
3	0x3d73c300	0.05951214
4	0xc0974eee	-4.728385
5	0x3e5847f4	0.21121198
6	0x3f424b71	0.75896364
7	0x3e5c0c20	0.21489
8	0xbda1746a	-0.07883532
9	0x3e959edd	0.29222766
10	0xbab36133	-0.0013685584
11	0xc0a343fe	-5.10205
12	0x3e7e8e30	0.24858928
13	0xc0448318	-3.0705013
14	0x3f144f67	0.5793366
15	0x3e01903b	0.12652676
16	0xc090c426	-4.523944
17	0xc0a8a5eb	-5.2702537
18	0x3d42181e	0.04738628
19	0x3f122410	0.57086277
20	0x3cdf0c60	0.02722758
21	0x3db9daa8	0.090749085
22	0x3f4417c1	0.76598746
23	0x3de6d3ee	0.11270891
24	0x3e84d938	0.25946975
25	0x3e1b5259	0.15168132
26	0x3f37d10c	0.71803355
27	0x3efcef62	0.49401385
28	0x3e67735c	0.226026
29	0xbe44c0d0	-0.19214177
30	0x3efa84a8	0.48929334
31	0x3f1e6372	0.6187049
32	0xbde52cee	-0.1119021
33	0x3f0b4f6d	0.5441807
34	0x3f26c9cc	0.6515167
35	0xbfb2178f	-1.391344
36	0x3e224db8	0.1584996
37	0x3e831a05	0.2560579
38	0xc07c1d37	-3.9392831
39	0x3f17027c	0.58988166
40	0xbdf0fd7f	-0.117671005
41	0x3f456e28	0.7712121
42	0xbe42913b	-0.19000714
43	0xc08813b0	-4.2524033
44	0x3ee93696	0.45549458
45	0xc0a054e1	-5.010361
46	0xc0a13110	-5.037239
47	0xc0b0b7dd	-5.5224442
48	0xbe891475	-0.2677342
49	0xc0974dc3	-4.7282424
50	0x3eec88fa	0.46198255
51	0xc092abf5	-4.583491
52	0xbe785481	-0.24250986
53	0x3e2a4816	0.16629061
54	0xc0639b64	-3.5563593
55	0x3e55ab84	0.2086621
56	0x3e38a42c	0.18031377
57	0x3e87eaa0	0.26546192
58	0xbe79a1ea	-0.24378172
59	0xbe7b4b62	-0.24540475
60	0x3dd26217	0.102726154
61	0x3e209ff5	0.15686019
62	0x3f48463e	0.7823218
63	0x3ea4b65d	0.32170382
64	0x3e07a49e	0.1324639
65	0xbf6246ce	-0.8838929
66	0xbfd2ac47	-1.6458825
67	0x3e965ab1	0.29366067
68	0x3eaf866d	0.34282246
69	0x3b49f780	0.0030817688
70	0xbf97ba12	-1.1853659
71	0xbd8cb936	-0.06871264
72	0xbd883fc2	-0.06652786
73	0xbf7d5d9f	-0.9897098
74	0x3e60d037	0.21954428
75	0x3f1296e2	0.5726148
76	0x3e009186	0.12555513
77	0x3f3b7cb6	0.7323717
78	0xbf3d655d	-0.73982793
79	0x3e298519	0.16554679
80	0x3edfc718	0.43706584
81	0x3f0501ce	0.5195588
82	0xbd704a8e	-0.05866485
83	0xbf9c64e6	-1.2218292
84	0x3e851690	0.25993776
85	0xbd389df8	-0.045072526
86	0xc04a7347	-3.163286
87	0x3e4e8333	0.20167236
88	0x3e947a6e	0.28999656
89	0x3e90a47a	0.28250486
90	0xbf9ebc09	-1.2401134
91	0xbf471873	-0.7777168
92	0xbe28f47d	-0.16499515
93	0xbd937a08	-0.0720101
94	0xbf9abdeb	-1.2089208
95	0xbfbffebb	-1.4999613
96	0x3d8b1a03	0.06792071
97	0xbf84a4ec	-1.036283
98	0xc090d558	-4.526043
99	0x3eee6966	0.46564788
100	0x3dd48ef1	0.103788264
101	0xbfcf12ef	-1.6177653
102	0x3edc22e2	0.42995363
103	0xbf862dfb	-1.0482782
104	0xbe791b64	-0.24326855
105	0xbfc558b0	-1.541769
106	0xbe7d7bec	-0.24754304
107	0x3ed76e8a	0.42076522
108	0xbfa38b4c	-1.2776885
109	0x3ee7f1e6	0.4530174
110	0x3f0a5d8b	0.54048985
111	0x3ea7a36f	0.32741877
112	0xbe00506b	-0.12530677
113	0x3f1c43ed	0.61041147
114	0xbfc07ec0	-1.5038681
115	0x3f189cb3	0.59614104
116	0xbdcbabd3	-0.09944882
117	0xbe8cc493	-0.27493724
118	0x3f2c90ed	0.6740864
119	0x3e5d6228	0.21619475
120	0xbe174d1b	-0.14775507
121	0xbe83da0b	-0.2575229
122	0xbbd0afce	-0.006368614
123	0xbc29d819	-0.010366463
124	0x3f105aed	0.5638874
125	0x3f158a06	0.5841373
126	0xc02981e9	-2.648554
127	0xbed4ed53	-0.41587314
128	0xbe8c5960	-0.27411938
129	0x3f02f280	0.51151276
130	0x3f024660	0.50888634
131	0x3e79dab3	0.24399833
132	0xbeed11a2	-0.46302515
133	0xbce03ce0	-0.027372777
134	0x3f1db518	0.6160445
135	0x3d9b6755	0.075880684
136	0xbe72c62f	-0.23708414
137	0x3e0e89e7	0.13919793
138	0xbe0fd2e6	-0.14045295
139	0xbdecbdf0	-0.11559665
140	0xbe184ae8	-0.14872324
141	0xc01cc16b	-2.4493053
142	0x3ee59a62	0.44844347
143	0xbe1ae314	-0.15125686
144	0xbda34677	-0.079724245
145	0xbdc24a78	-0.0948686
146	0x3bd3e398	0.0064663403
147	0x3ee0ff82	0.43944937
148	0x3e8c7066	0.27429503
149	0x3e5aec20	0.21379137
150	0x3f1fdc6f	0.6244573
151	0xbdf02809	-0.11726386
152	0xbe8b7e85	-0.27244964
153	0xbca01e65	-0.019545743
154	0x3f11e3b3	0.56988066
155	0x3eb8a1d2	0.3606096
156	0x3e81f966	0.25385588
157	0x3d86ce9c	0.06582376
158	0x3eb7849f	0.3584337
159	0x3ef826d5	0.48467126
160	0x3cff5d56	0.031172436
161	0x3ec87253	0.39149722
162	0x3f017093	0.505624
163	0xbe81bb7f	-0.2533836
164	0xbc8ff0b3	-0.017570829
165	0x3e3c78b9	0.18405427
166	0xbe2d4791	-0.16921832
167	0x3ef60617	0.4805152
168	0xbe91845c	-0.28421295
169	0x3f2010c5	0.6252559
170	0x3e322fc5	0.17401035
171	0xbea0d47b	-0.3141211
172	0x3eaed5d6	0.3414752
173	0xbea88632	-0.32914883
174	0xbd935196	-0.07193296
175	0xbf1bb8e3	-0.6082899
176	0xbdf3a49f	-0.11896633
177	0xbe5764a3	-0.21034484
178	0x3ea6f45a	0.326083
179	0xbe8bd2ab	-0.27309164
180	0x3d5be326	0.053683423
181	0x3cf458d2	0.02982751
182	0xc0251fd9	-2.5800688
183	0x3e42a2a8	0.19007361
184	0xbe50aea7	-0.20379125
185	0xbde6cebe	-0.11269902
186	0xbe6489bc	-0.22318166
187	0xb9f67784	-0.00047009822
188	0xbddb3719	-0.107038684
189	0xbd48c8e4	-0.04901971
190	0x3f2abbc5	0.66692764
191	0x3e3c3f22	0.18383458
192	0x3d082f6c	0.03324835
193	0xc0a0a5f0	-5.020256
194	0xbfd3cc8e	-1.65468
195	0x3d322b5b	0.04349838
196	0x3f0d2824	0.55139375
197	0x3d3e76a0	0.04649985
198	0xc0c752ef	-6.2288737
199	0x3e898bee	0.2686457
200	0xbc9310e0	-0.017952383
201	0xc080326d	-4.0061555
202	0xbe8eb537	-0.2787263
203	0x3f41fbd7	0.757749
204	0x3e7f4c5e	0.24931476
205	0x3f843911	1.0329915
206	0xc03e67ba	-2.975081
207	0xbe1870c5	-0.14886768
208	0x3f16f2bd	0.5896414
209	0x3f342733	0.70372313
210	0xbe6a7ee4	-0.22899967
211	0xc09c5fc9	-4.8866925
212	0xbd0e5b08	-0.034754783
213	0xbda4817e	-0.08032511
214	0xc073b891	-3.80814
215	0x3e413767	0.1886879
216	0xbd93eb56	-0.07222621
217	0xbdb1fe4e	-0.08691083
218	0xc0b80b35	-5.751368
219	0xc05b9170	-3.4307518
220	0xbe850f44	-0.2598821
221	0xbd699ae4	-0.05703248
222	0xc0a073e6	-5.0141478
223	0xc05052f7	-3.2550638
224	0x3cc0378f	0.023463992
225	0xc04fef89	-3.248995
226	0xc0ac81a3	-5.390825
227	0x3ef3006c	0.4746126
228	0xbcb66ba2	-0.02226812
229	0xbf94e0b1	-1.163107
230	0x3f1ab270	0.60428524
231	0xc0a66844	-5.2002277
232	0x3daa5ff0	0.0831908
233	0xc0b84b44	-5.7591877
234	0x3d221ba0	0.039577127
235	0x3f199b25	0.60002357
236	0xc0b403a4	-5.6254444
237	0x3f33e3ac	0.70269275
238	0x3f33a41e	0.701723
239	0x3f16fb44	0.5897715
240	0x3d993c24	0.07482174
241	0x3f461af4	0.7738488
242	0xc0a89474	-5.2681217
243	0x3f446f92	0.7673274
244	0x3d9adf20	0.07562089
245	0x3de12757	0.109938316
246	0x3f923dcc	1.1425109
247	0x3ddb6fdc	0.10714695
248	0xbdd1fca8	-0.102532685
249	0x3defcc7b	0.117089234
250	0x3dda52fb	0.106603585
251	0x3c64a512	0.013955371
252	0xbf611741	-0.8792611
253	0xbf1cd7cd	-0.61266786
254	0xc07981b6	-3.898542
255	0xc05b59b2	-3.4273496

model_3/output_a/MatMul f4 [4, 64]
0	0x3e1161be	0.14197442
1	0x3ed7c55f	0.4214277
2	0x3ecc095a	0.39850885
3	0xbd5d55c0	-0.054036856
4	0xc09df16c	-4.9357204
5	0x3e3bf59c	0.18355411
6	0x3ef1f524	0.4725734
7	0x3e91cd55	0.28476968
8	0x3dacc460	0.08435893
9	0x3f19b90c	0.60047984
10	0xbd90df47	-0.07073837
11	0xc0ac2791	-5.37983
12	0xbe213dbd	-0.15746208
13	0xc04cd312	-3.2003827
14	0x3f06a746	0.5259899
15	0xbe3c2610	-0.18373895
16	0xc092e5b6	-4.590541
17	0xc0aa5856	-5.323283
18	0x3e5eb0ad	0.21747084
19	0x3f104fc6	0.56371725
20	0xbe107985	-0.14108856
21	0x3e663ff8	0.2248534
22	0x3f21967b	0.6312024
23	0xbe21f2d7	-0.15815292
24	0xbdde9086	-0.108674094
25	0x3e413cb4	0.18870813
26	0x3f1c57e3	0.61071604
27	0x3f185f51	0.5952044
28	0xbd63bebc	-0.05560182
29	0xbe8828b0	-0.26593542
30	0x3eda3e85	0.42625824
31	0x3f200af7	0.6251673
32	0xbde54e94	-0.11196628
33	0x3edf8915	0.43659273
34	0x3f3cf8f6	0.73817384
35	0xbfb29f4c	-1.3954864
36	0x3e69e939	0.22842874
37	0x3f0137a0	0.504755
38	0xc072205e	-3.7832255
39	0x3eff6506	0.49881762
40	0x3e84a222	0.25904948
41	0x3f23087b	0.63684815
42	0xbe50893a	-0.20364848
43	0xc08a750a	-4.326787
44	0x3ee1ffa0	0.4414034
45	0xc09e8f4a	-4.9549913
46	0xc0a1369c	-5.037916
47	0xc0ad2055	-5.410197
48	0xbdad36fb	-0.08457752
49	0xc0901edc	-4.503767
50	0x3f4186d2	0.75596344
51	0xc0905fb5	-4.511683
52	0x3db1825d	0.08667443
53	0xbdaa5c84	-0.08318427
54	0xc06ccede	-3.7001262
55	0x3e93db5c	0.28878295
56	0xbc3bb220	-0.0114560425
57	0xbe69a6f5	-0.22817595
58	0x3e024b6b	0.12724082
59	0xbda7a03a	-0.08184858
60	0x3e815a3f	0.25264165
61	0x3d130e83	0.03590251
62	0x3f52de49	0.8237043
63	0x3f1b0c2e	0.6056546
64	0x3e308db5	0.17241557
65	0xbf851f99	-1.0400268
66	0xbff3ab6c	-1.9036689
67	0x3db9cc1d	0.09072135
68	0x3f0355d4	0.5130284
69	0x3e366954	0.17813617
70	0xbfaba269	-1.3408939
71	0x3e29e18d	0.16589947
72	0x3e2ecca0	0.17070246
73	0xbf278b94	-0.65447354
74	0x3b2b1434	0.0026104571
75	0x3f0cc0e5	0.54981834
76	0x3e270a53	0.16312532
77	0x3f410abb	0.75407
78	0xbf415182	-0.75514996
79	0xbbb7c539	-0.0056082276
80	0x3ea1444b	0.31497416
81	0x3f17b0cc	0.59254146
82	0xbdd3d6c3	-0.10343697
83	0xbf9501df	-1.1641196
84	0xbc212e20	-0.009837657
85	0xbe91f4cb	-0.28507075
86	0xc04ca5ae	-3.1976123
87	0xbd934ebf	-0.07192754
88	0xbe8d1040	-0.2755146
89	0xbe5bf391	-0.21479632
90	0xbfb5be76	-1.4198749
91	0xbf383aba	-0.7196461
92	0xbdbd7f02	-0.092527404
93	0x3e612b18	0.21989095
94	0xbfa200a1	-1.2656442
95	0xbfd549e7	-1.6663178
96	0xbe89c355	-0.2690684
97	0xbf899f66	-1.075177
98	0xc0901a7b	-4.5032325
99	0x3ec9fd80	0.39451218
100	0xbe34e846	-0.1766673
101	0xbfaf447f	-1.3692778
102	0x3ed74f57	0.4205272
103	0xbf97c71a	-1.1857636
104	0x3e4f1f82	0.20226863
105	0xbfd73d4a	-1.6815579
106	0xbdb190e1	-0.086702116
107	0x3eb27cca	0.34860831
108	0xbfa0aa1d	-1.2551914
109	0x3f073ea0	0.52829933
110	0x3efe39a9	0.49653366
111	0x3eed3206	0.46327227
112	0x3e5e1345	0.21687038
113	0x3efa536f	0.4889178
114	0xbfa021ea	-1.251035
115	0x3ed6f848	0.419863
116	0xbe628791	-0.22122027
117	0x3e76f933	0.241185
118	0x3f76de40	0.96432877
119	0x3dbe5670	0.092938304
120	0x3d4a1030	0.049331844
121	0x3d3ade93	0.04562242
122	0xbd096c1d	-0.03355037
123	0x3e3f8e29	0.18706574
124	0x3f2c2bcf	0.67254347
125	0x3efbba0b	0.49165377
126	0xc02d7083	-2.7099922
127	0xbe80f5a1	-0.251874
128	0xbe8e60fb	-0.27808365
129	0x3e9fdd82	0.31223685
130	0x3e865ffc	0.26245105
131	0x3d6ca34c	0.05777292
132	0xbeaabca5	-0.3334705
133	0xbe9587d8	-0.29205203
134	0x3eae74d5	0.3407351
135	0xbdf0123a	-0.117222264
136	0x3e755164	0.2395683
137	0x3eeababb	0.4584559
138	0xbe852939	-0.26008013
139	0xbe1ac866	-0.15115508
140	0x3e038e19	0.12847175
141	0xc00de5b8	-2.217146
142	0x3ecb332f	0.39687487
143	0xbe38d17a	-0.18048659
144	0xbe4c82b8	-0.1997174
145	0xbc58e498	-0.013238095
146	0x3e620b42	0.22074607
147	0x3edfabc2	0.43685728
148	0x3da542c0	0.08069372
149	0xbe957ae3	-0.29195318
150	0x3f00fdda	0.50387347
151	0xbc77b743	-0.015119377
152	0x3e8f7c6d	0.28024617
153	0x3e862ebf	0.2620754
154	0x3ef19149	0.47181156
155	0x3eebbaa9	0.46040848
156	0xbe8456e7	-0.2584755
157	0x3e23bb44	0.15989405
158	0x3e93dd8e	0.2887997
159	0x3eeecf4b	0.46642527
160	0xbe07576f	-0.13216947
161	0x3e99f58a	0.30070144
162	0x3f16cce2	0.58906376
163	0xbe9dfe83	-0.3085824
164	0xbdce520c	-0.10074243
165	0x3eeb3935	0.45942083
166	0xbe144eee	-0.14483234
167	0x3ec3d143	0.38245592
168	0x3e54f24e	0.20795557
169	0x3efed6ae	0.49773163
170	0xbe51d774	-0.20492345
171	0xbe9553c5	-0.29165474
172	0x3eaad2ce	0.33363956
173	0xbe4a2c06	-0.19743356
174	0xbe14890b	-0.14505403
175	0xbef87b38	-0.48531508
176	0xbe694b12	-0.22782543
177	0xbeb01021	-0.34387305
178	0x3f1e8d88	0.6193471
179	0xbee65046	-0.4498312
180	0xbdabf8b7	-0.08397048
181	0xbe831434	-0.2560135
182	0xc01e393f	-2.472244
183	0x3d37ee80	0.044905186
184	0xbc5f90c0	-0.013645351
185	0x3dcb1e96	0.09917943
186	0xbe53553d	-0.20637985
187	0xbe490234	-0.19629747
188	0xbc533f8d	-0.01289357
189	0xbe479046	-0.1948863
190	0x3f348220	0.70511055
191	0x3ee1308a	0.43982345
192	0xbe8e7f12	-0.27831322
193	0xc0a18937	-5.048
194	0xbff79ced	-1.9344765
195	0x3e0ef4f9	0.13960637
196	0x3f45df5f	0.7729396
197	0xbdb8fca8	-0.09032565
198	0xc0c55a1b	-6.167249
199	0xbe632e0c	-0.22185534
200	0xbdc2b3d8	-0.09506959
201	0xc06e7147	-3.725664
202	0x3df6797f	0.12034892
203	0x3f409c4e	0.752385
204	0x3dcb0669	0.09913332
205	0x3f735d4e	0.95064247
206	0xc04180a7	-3.0234773
207	0xbe8bcb14	-0.27303374
208	0x3ef47d32	0.47751766
209	0x3f4a2e32	0.7897674
210	0xbe270ab8	-0.16312683
211	0xc0a022e0	-5.004257
212	0x3e575d24	0.21031624
213	0xbe32bbde	-0.17454478
214	0xc074d5b1	-3.8255427
215	0xbe898dc8	-0.26865983
216	0x3e55e136	0.20886692
217	0xbe68d66b	-0.22738044
218	0xc0be7da9	-5.9528394
219	0xc0598bdd	-3.3991616
220	0xbe096927	-0.13419019
221	0x3e35d3fe	0.1775665
222	0xc0a5e9cc	-5.1847897
223	0xc04b0d0c	-3.1726713
224	0xbd0bb0a0	-0.03410399
225	0xc0598c30	-3.3991814
226	0xc0aef5c5	-5.467501
227	0x3ee08578	0.4385183
228	0x3d63b309	0.055590663
229	0xbf823c58	-1.0174665
230	0x3f10e628	0.5660119
231	0xc0acb723	-5.3973556
232	0x3dc508fc	0.09620854
233	0xc0b1f953	-5.561685
234	0x3e9339b5	0.28754964
235	0x3f109571	0.5647803
236	0xc0b49c84	-5.644106
237	0x3f370113	0.71486014
238	0x3f328805	0.697388
239	0x3f2b338e	0.6687554
240	0x3e22fa07	0.1591569
241	0x3f2305cb	0.63680714
242	0xc0a91460	-5.283737
243	0x3f15df65	0.58544
244	0xbdb5e569	-0.08881647
245	0x3e8c5810	0.27410936
246	0x3fb88e78	1.4418478
247	0x3d0b3d50	0.03399402
248	0xbc1d98e0	-0.009618968
249	0x3e94f0c4	0.2908994
250	0xbd0be3d3	-0.034152817
251	0xbe3c77c7	-0.18405066
252	0xbf1db265	-0.61600333
253	0xbf530bf1	-0.82440096
254	0xc07a43a0	-3.9103775
255	0xc047500c	-3.1142607

model_3/output_b/BiasAdd/ReadVariableOp f4 [4]
0	0xbec170f4	-0.3778149
1	0x3dca276c	0.098708004
2	0xbc31c9c9	-0.010851332
3	0x3e194da0	0.14971018

model_3/output_a/BiasAdd/ReadVariableOp f4 [4]
0	0xbec975ac	-0.3934759
1	0x3debf49c	0.11521265
2	0xbd0bba98	-0.034113497
3	0x3e20d4c9	0.15706171

model_3/dense_7/BiasAdd/ReadVariableOp f4 [64]
0	0xbb4d1a29	-0.003129611
1	0xbde46c9a	-0.111535266
2	0xbbfe5125	-0.007761138
3	0xbb40eb0c	-0.0029436974
4	0x3d80756b	0.06272396
5	0x00000000	0.0
6	0xbe42f09e	-0.190371
7	0xbab3989d	-0.0013702099
8	0x00000000	0.0
9	0xbd95c395	-0.07312695
10	0xbc394e48	-0.011310168
11	0x3e1c9324	0.15290505
12	0xbb3edb3b	-0.002912237
13	0xbb540114	-0.0032349275
14	0xbcc22bdb	-0.023702553
15	0xbbcd586c	-0.006266644
16	0x3e3a7e91	0.18212344
17	0x3e3bc305	0.18336113
18	0xbbbb513a	-0.00571647
19	0xbdfef878	-0.124497354
20	0x00000000	0.0
21	0xbb501e84	-0.003175647
22	0xbda52532	-0.08063735
23	0xba9cc51d	-0.00119606
24	0xbc0c4e9e	-0.008563666
25	0xbb3f3600	-0.0029176474
26	0xbe09005a	-0.1337904
27	0xbdb1d64c	-0.08683452
28	0x00000000	0.0
29	0x00000000	0.0
30	0xbdcd063e	-0.10010956
31	0xbcfd2c1d	-0.030904824
32	0xbae056ce	-0.0017115714
33	0xbd42ac7a	-0.047527768
34	0xbe0a0306	-0.13477716
35	0x3dca6add	0.09883664
36	0xbba58449	-0.00505117
37	0x3ced48b0	0.028965324
38	0x3e250c75	0.16118033
39	0xbdf8d731	-0.121504195
40	0xbbbfa871	-0.005848937
41	0xbe11aefa	-0.14226905
42	0xbb4d23ff	-0.0031301973
43	0x3df3ccaf	0.11904275
44	0xbe32ac90	-0.1744864
45	0x3dcfc385	0.10144714
46	0x3e117085	0.14203079
47	0x3daa76c2	0.083234325
48	0xbc060b8d	-0.008181465
49	0x3daedd80	0.085383415
50	0xbdf85c77	-0.12127011
51	0x3d93f1b0	0.072238326
52	0xba6d041c	-0.0009041445
53	0xbb1ecee1	-0.0024232196
54	0xbb2283a6	-0.0024797707
55	0xbb50214c	-0.0031758128
56	0x00000000	0.0
57	0xbb15ac3c	-0.0022838255
58	0xbc0d2e24	-0.008616958
59	0xbcca2366	-0.024675082
60	0xbd0d8edb	-0.034560066
61	0xbd88dc2f	-0.06682622
62	0xbdb473bc	-0.08811137
63	0xbd5539fe	-0.05205726

model_3/dense_6/BiasAdd/ReadVariableOp f4 [64]
0	0x3d09ec67	0.033672716
1	0x3c757aad	0.0149828615
2	0x8e214430	-1.9877613e-30
3	0x00000000	0.0
4	0x3e4df7f1	0.20114113
5	0xbda1964b	-0.07889994
6	0xbe21e08b	-0.15808313
7	0x00000000	0.0
8	0x00000000	0.0
9	0x3e39faab	0.18162028
10	0xb5025531	-4.8552744e-07
11	0x00000000	0.0
12	0x3e1f305b	0.1554579
13	0x3def36c4	0.116803676
14	0x3e03e62d	0.12880774
15	0x00000000	0.0
16	0xbdf89877	-0.12138455
17	0x3e6e133f	0.2324953
18	0x00000000	0.0
19	0xbce2b857	-0.02767579
20	0x3dc68369	0.09693033
21	0xbdd7eed4	-0.105436
22	0x00000000	0.0
23	0xbdfed894	-0.12443653
24	0x959c258a	-6.3067124e-26
25	0xbcd38995	-0.02582244
26	0x3e53f0b4	0.2069729
27	0xbdc5909b	-0.09646722
28	0x3cfbe368	0.030748084
29	0x8fc659b8	-1.9558866e-29
30	0xb7f64446	-2.9357278e-05
31	0xbda077d5	-0.07835356
32	0xbdac7d11	-0.08422292
33	0x3e77334f	0.24140666
34	0x3e4f901d	0.20269819
35	0x3c06f56a	0.008237222
36	0xbd84bfe4	-0.06481913
37	0x8d3f8ade	-5.9023574e-31
38	0xbd2f765f	-0.042837497
39	0xbe5c2ede	-0.21502253
40	0x3e812bea	0.25228816
41	0x3c6c1e82	0.0144115705
42	0xbe2e9f4d	-0.17052956
43	0xbdf3709d	-0.11886714
44	0xbda7448a	-0.0816737
45	0x3d3abdc7	0.045591142
46	0xbe8d4caf	-0.27597567
47	0xbe361033	-0.17779617
48	0xbddab0de	-0.10678266
49	0xbe0825d5	-0.13295682
50	0x3e4ff173	0.2030695
51	0xbdf585c8	-0.119884074
52	0xbdbbf45c	-0.09177467
53	0x3e6ee410	0.23329186
54	0x3d5abb0a	0.05340103
55	0xbb0547a0	-0.0020336881
56	0x00000000	0.0
57	0x3a4c4bf2	0.0007793299
58	0xbe28f2ee	-0.1649892
59	0xbd9a3d2d	-0.075311996
60	0xbbb21c1d	-0.0054354803
61	0x3d240ac0	0.040049314
62	0x998c100a	-1.4482139e-23
63	0xbd961240	-0.073277

model_3/dense_6/MatMul f4 [64, 5]
0	0x3bdf4b8e	0.0068144267
1	0xbff1c8b6	-1.8889377
2	0x3e0058b9	0.12533845
3	0x3e8e9cfb	0.27854142
4	0x3e8ad24d	0.27113572
5	0x3e18afee	0.14910862
6	0x3eb48287	0.35255834
7	0xbe5e5fe6	-0.2171627
8	0xbe896acb	-0.2683929
9	0xbcb94157	-0.022614164
10	0x8b0e19e0	-2.736767e-32
11	0x8b058776	-2.5716778e-32
12	0x8b1946fb	-2.9520128e-32
13	0x8b037314	-2.5316257e-32
14	0x0ad8d851	2.0881413e-32
15	0x8b1e39e7	-3.0473254e-32
16	0x0b500019	4.0059416e-32
17	0x8b0717db	-2.6018e-32
18	0x0afdbe5e	2.4434622e-32
19	0x09b28cbc	4.2984287e-33
20	0x3e2c07d4	0.16799861
21	0x3ea24b70	0.3169818
22	0xbd32032d	-0.04346006
23	0xbdd953e7	-0.10611706
24	0x3ebfa13b	0.37427697
25	0xbdfd0380	-0.12354183
26	0xbef5e9c2	-0.48029906
27	0x3ed062cf	0.40700385
28	0x3eaec5e0	0.34135342
29	0xbdd09b90	-0.10185921
30	0x3e7d821a	0.24756661
31	0xbf49c81f	-0.78820986
32	0x3eedb6e4	0.46428597
33	0x3effa831	0.49933007
34	0xbe810deb	-0.2520593
35	0x8afcd36e	-2.4346248e-32
36	0x8b0965ba	-2.646177e-32
37	0x8b04306e	-2.545871e-32
38	0x0b33b665	3.4611364e-32
39	0x0aeb8e21	2.268314e-32
40	0x8b1e3ce9	-3.0475517e-32
41	0x8b0852ff	-2.6255087e-32
42	0x8afa9a75	-2.4132225e-32
43	0x8b02af04	-2.5168756e-32
44	0x0a5d6800	1.0660323e-32
45	0x3e107e6a	0.14110723
46	0x3f42bd65	0.76070243
47	0xbe29187c	-0.16513246
48	0xbdbd4d98	-0.092433155
49	0x3f04112e	0.51588714
50	0x0b1013be	2.7748244e-32
51	0x8b034832	-2.5283996e-32
52	0x8b735b4f	-4.686879e-32
53	0x0ab6d713	1.7606864e-32
54	0x8b0815b4	-2.6208975e-32
55	0x8b95b82f	-5.766984e-32
56	0x8b094f73	-2.644501e-32
57	0x8af6ce08	-2.3766439e-32
58	0x0b4f28ca	3.9897436e-32
59	0x0acc7fd9	1.9692576e-32
60	0x3e19b9a3	0.15012221
61	0x3ec7e330	0.39040518
62	0x3d49e5c0	0.049291372
63	0xbd1cbce7	-0.03826609
64	0x3e10fd69	0.14159168
65	0x3c88ec5f	0.016714273
66	0xc009ef55	-2.1552327
67	0xbdb77cbf	-0.0895934
68	0xbd70504b	-0.058670323
69	0x3eb33c4a	0.35006934
70	0xbe85789a	-0.26068574
71	0x3ccd1328	0.025033548
72	0x3de02572	0.10944642
73	0xbd4c9b31	-0.04995269
74	0x3e340945	0.17581661
75	0x8add1349	-2.128878e-32
76	0x0a5efc05	1.0736311e-32
77	0x8ada6405	-2.103026e-32
78	0x8b023863	-2.507951e-32
79	0x8a86f806	-1.2997027e-32
80	0x3e1eb8ba	0.15500155
81	0xbf04c8f5	-0.51869136
82	0x3ec90134	0.3925873
83	0x3ef99c6b	0.4875215
84	0x3c010a2e	0.007875962
85	0xbd2d8b7b	-0.042369347
86	0x3f377c31	0.71673876
87	0xbe0e91e3	-0.13922839
88	0xbe62fda4	-0.22167069
89	0x3ec9fe75	0.39451948
90	0x8b05bcb3	-2.575683e-32
91	0x8af1e6c3	-2.3294259e-32
92	0x8af653a5	-2.3720402e-32
93	0x0b00f5a0	2.483669e-32
94	0x8b014afd	-2.490091e-32
95	0x3e4684d8	0.19386613
96	0x3e07a940	0.13248158
97	0x3dabc762	0.08387639
98	0x3e6c277e	0.2306194
99	0x3e67c859	0.2263502
100	0x3e226243	0.15857796
101	0x3e9c700c	0.30554235
102	0xbcd3e2c8	-0.025864974
103	0xbde33e0d	-0.110958196
104	0x3e40c5f2	0.1882551
105	0xbe2173a2	-0.15766767
106	0xbde8e75c	-0.11372253
107	0x3f05356d	0.52034646
108	0x3f34ef53	0.7067768
109	0xbea86ec6	-0.32897013
110	0x8b00cfc8	-2.480822e-32
111	0x8aeb4b76	-2.2658062e-32
112	0x8b04d558	-2.5582777e-32
113	0x0b39531f	3.5692237e-32
114	0x0acd6e2d	1.9782225e-32
115	0x3d2f3526	0.042775296
116	0xbf57f4b2	-0.8435775
117	0x3eb577c0	0.35442924
118	0x3eeb4a3c	0.45955074
119	0xbe2c2fba	-0.16815081
120	0x8a46dce5	-9.574899e-33
121	0x0a23e5f5	7.891415e-33
122	0x0b7f2e2d	4.9145952e-32
123	0x0abd38ff	1.8221478e-32
124	0x0a72ff7a	1.1699926e-32
125	0x3e51caff	0.20487593
126	0x3e9654f5	0.29361692
127	0xbd8cbabc	-0.06871554
128	0x3ddd543e	0.108070835
129	0x3d9f0fe0	0.077667
130	0x3e2eb949	0.17062868
131	0x3ebfaa93	0.37434825
132	0xbdbd5c6c	-0.09246144
133	0xbe361c52	-0.17784241
134	0x3eb02f19	0.34410933
135	0xbe0f0dca	-0.13970104
136	0xbf1cc64b	-0.6124007
137	0x3f008626	0.50204694
138	0x3ed7ec9d	0.4217271
139	0xbe683a0a	-0.2267839
140	0x3e91ec86	0.28500766
141	0x3e8a7caf	0.2704825
142	0xbebf8f4f	-0.37414023
143	0xbe889b94	-0.26681197
144	0x3db02f61	0.08602787
145	0x0ab24c70	1.7169529e-32
146	0x0b041fd5	2.5446223e-32
147	0x8b588594	-4.170058e-32
148	0x0a00d4dc	6.20301e-33
149	0x8b8712ad	-5.202821e-32
150	0x8b03832c	-2.5328365e-32
151	0x0ab5fd9f	1.7525068e-32
152	0x0b03ac7a	2.535944e-32
153	0x8b15f1a0	-2.8878135e-32
154	0x0b2ec14d	3.3656604e-32
155	0xbd83204e	-0.06402646
156	0xbf072626	-0.52792585
157	0x3ea10e57	0.31456253
158	0x3ee58a42	0.44832045
159	0xbc79f432	-0.015255975
160	0xbdc8fd20	-0.09813905
161	0xbf4b8e40	-0.7951393
162	0x3ee20ea3	0.44151792
163	0x3e89b4d4	0.26895773
164	0xbdcdb27a	-0.10043807
165	0x3d4a5ef1	0.04940695
166	0x3f181140	0.5940132
167	0xbe656729	-0.22402634
168	0xbe7dcd4b	-0.24785344
169	0x3f21de0f	0.6322946
170	0xbe450b74	-0.1924265
171	0x3efc353f	0.49259374
172	0x3d734ad4	0.059397534
173	0xbe9f7575	-0.311443
174	0x3ea84af1	0.32869676
175	0x3e57addc	0.21062416
176	0x3f22b241	0.63553244
177	0xbeb0c80f	-0.34527633
178	0xbea10007	-0.31445333
179	0x3e2c8500	0.1684761
180	0xbdf9113a	-0.12161489
181	0xbeb6ef3d	-0.357294
182	0x3ecfbde5	0.40574566
183	0x3efb807c	0.49121463
184	0x3c98dd68	0.018660262
185	0x8b0813dc	-2.6207588e-32
186	0x8ad98cde	-2.0949328e-32
187	0x0a5e8d65	1.07155045e-32
188	0x8aff5623	-2.4588008e-32
189	0x8823752e	-4.9188772e-34
190	0x3e413e44	0.18871409
191	0x3e55b073	0.20868091
192	0xbd6843e7	-0.05670538
193	0x3de84ceb	0.11342796
194	0x3de6c25a	0.11267538
195	0x3c869fad	0.016433561
196	0x3dabd4da	0.083902076
197	0x3eaffba0	0.34371662
198	0x3f2d6574	0.6773293
199	0xbe4a89ab	-0.19779079
200	0xbe895b3d	-0.26827422
201	0x3e591cdc	0.21202415
202	0xbd79556e	-0.060872488
203	0xbe47e8b4	-0.19522363
204	0x3e99d5b1	0.30045846
205	0x3e534c69	0.20634617
206	0x3f06aece	0.5261048
207	0xbea004c2	-0.3125363
208	0xbe6bec70	-0.23039412
209	0xbcbf9a12	-0.023388896
210	0x3e3b2b18	0.18278158
211	0xbe5d3baf	-0.21604799
212	0x3e8dc4af	0.2768912
213	0x3f17e048	0.593266
214	0xbdd1f644	-0.102520496
215	0xbd8605de	-0.06544088
216	0xbebe59f0	-0.37177992
217	0x3ebb062e	0.36528152
218	0x3ebb9e9e	0.36644453
219	0xbdd30042	-0.103027835
220	0x3dded2af	0.108800285
221	0x3e3c904f	0.18414424
222	0x3de09a98	0.109669864
223	0x3dfcff08	0.12353331
224	0xbe34fdb4	-0.17674905
225	0x3e37f1e8	0.17963374
226	0x3ef58b3d	0.47957793
227	0xbe9e43a9	-0.30910996
228	0xbe8a5f8b	-0.27026019
229	0xbc513589	-0.012769111
230	0x3d0e54c6	0.034748815
231	0x3ee1c6fa	0.4409712
232	0x3ec503ff	0.3847961
233	0x3f25572f	0.64586157
234	0xbe84efea	-0.2596429
235	0x3e139eb9	0.14416017
236	0xbe581a0a	-0.21103683
237	0x3eb9eee6	0.36315078
238	0x3f3269fc	0.6969297
239	0xbed0a986	-0.40754336
240	0xbceec693	-0.029147422
241	0xbf4113b8	-0.75420713
242	0x3ed52683	0.41630945
243	0x3ea9c486	0.33157748
244	0xbeae355c	-0.34025085
245	0x3df5432d	0.119757034
246	0xbf3541c2	-0.70803463
247	0x3ec215fe	0.37907404
248	0x3ec6d1bd	0.38831893
249	0xbe99200f	-0.2990727
250	0xbbb7c716	-0.0056084497
251	0x3e903d90	0.28171968
252	0x3d07871e	0.033087842
253	0xbe8b5011	-0.27209523
254	0x3ea81c19	0.32833937
255	0x3dfce410	0.12348187

model_3/dense_7/MatMul i1 [64, 64] scale=0.00744838 zero_point=0
0	0x00	0.0
1	0x00	0.0
2	0x00	0.0
3	0x00	0.0
4	0x00	0.0
5	0x00	0.0
6	0x00	0.0
7	0x00	0.0
8	0x00	0.0
9	0x00	0.0
10	0x00	0.0
11	0x00	0.0
12	0x00	0.0
13	0x00	0.0
14	0x00	0.0
15	0x00	0.0
16	0x00	0.0
17	0x00	0.0
18	0x00	0.0
19	0x00	0.0
20	0x00	0.0
21	0x00	0.0
22	0x00	0.0
23	0x00	0.0
24	0x00	0.0
25	0x00	0.0
26	0x00	0.0
27	0x00	0.0
28	0x00	0.0
29	0x00	0.0
30	0x00	0.0
31	0x00	0.0
32	0x00	0.0
33	0x00	0.0
34	0x00	0.0
35	0x00	0.0
36	0x00	0.0
37	0x00	0.0
38	0x00	0.0
39	0x00	0.0
40	0x00	0.0
41	0x00	0.0
42	0x00	0.0
43	0x00	0.0
44	0x00	0.0
45	0x00	0.0
46	0x00	0.0
47	0x00	0.0
48	0x00	0.0
49	0x00	0.0
50	0x00	0.0
51	0x00	0.0
52	0x00	0.0
53	0x00	0.0
54	0x00	0.0
55	0x00	0.0
56	0x00	0.0
57	0x00	0.0
58	0x00	0.0
59	0x00	0.0
60	0x00	0.0
61	0x00	0.0
62	0x00	0.0
63	0x00	0.0
64	0x54	0.62566394
65	0xf0	-0.11917408
66	0x00	0.0
67	0x00	0.0
68	0xf3	-0.09682894
69	0x28	0.2979352
70	0x24	0.2681417
71	0x00	0.0
72	0x00	0.0
73	0xe7	-0.1862095
74	0x00	0.0
75	0x00	0.0
76	0xf7	-0.06703542
77	0x42	0.49159306
78	0xfe	-0.01489676
79	0x00	0.0
80	0x21	0.24579653
81	0xd8	-0.2979352
82	0x00	0.0
83	0xfe	-0.01489676
84	0xf4	-0.08938056
85	0x2d	0.3351771
86	0x00	0.0
87	0x3d	0.4543512
88	0x00	0.0
89	0x05	0.0372419
90	0xf1	-0.111725695
91	0x2d	0.3351771
92	0xe6	-0.19365788
93	0x00	0.0
94	0x00	0.0
95	0x22	0.2532449
96	0x22	0.2532449
97	0xd8	-0.2979352
98	0xf8	-0.05958704
99	0xea	-0.16386436
100	0x1f	0.23089978
101	0x00	0.0
102	0x09	0.06703542
103	0x4d	0.57352525
104	0xf1	-0.111725695
105	0xec	-0.1489676
106	0x24	0.2681417
107	0x27	0.2904868
108	0x11	0.12662245
109	0xea	-0.16386436
110	0x65	0.7522864
111	0x3d	0.4543512
112	0x29	0.30538356
113	0x32	0.372419
114	0xf0	-0.11917408
115	0x1d	0.21600302
116	0x20	0.23834816
117	0xd6	-0.31283197
118	0xe8	-0.17876112
119	0x00	0.0
120	0x00	0.0
121	0x1c	0.20855464
122	0x24	0.2681417
123	0x2e	0.34262547
124	0x1b	0.20110625
125	0xf4	-0.08938056
126	0x00	0.0
127	0x31	0.36497062
128	0x41	0.4841447
129	0xf5	-0.08193218
130	0x00	0.0
131	0x00	0.0
132	0x0a	0.0744838
133	0x1a	0.19365788
134	0x0f	0.111725695
135	0x00	0.0
136	0x00	0.0
137	0xe9	-0.17131273
138	0x00	0.0
139	0x00	0.0
140	0x01	0.00744838
141	0x41	0.4841447
142	0xf5	-0.08193218
143	0x00	0.0
144	0x07	0.05213866
145	0xe7	-0.1862095
146	0x00	0.0
147	0xf5	-0.08193218
148	0xf1	-0.111725695
149	0x0b	0.08193218
150	0x00	0.0
151	0x28	0.2979352
152	0x00	0.0
153	0xfd	-0.02234514
154	0xfe	-0.01489676
155	0x1a	0.19365788
156	0xf6	-0.0744838
157	0x00	0.0
158	0x00	0.0
159	0x17	0.17131273
160	0x21	0.24579653
161	0xe7	-0.1862095
162	0xec	-0.1489676
163	0xef	-0.12662245
164	0x07	0.05213866
165	0x00	0.0
166	0xfa	-0.04469028
167	0x2d	0.3351771
168	0xf2	-0.10427732
169	0xf1	-0.111725695
170	0x11	0.12662245
171	0x17	0.17131273
172	0x03	0.02234514
173	0xf2	-0.10427732
174	0x31	0.36497062
175	0x1a	0.19365788
176	0x23	0.26069328
177	0x21	0.24579653
178	0x00	0.0
179	0x1a	0.19365788
180	0x20	0.23834816
181	0xe9	-0.17131273
182	0xf2	-0.10427732
183	0x00	0.0
184	0x00	0.0
185	0x0d	0.09682894
186	0x10	0.11917408
187	0x1d	0.21600302
188	0xff	-0.00744838
189	0xf4	-0.08938056
190	0x00	0.0
191	0x1f	0.23089978
192	0x00	0.0
193	0x00	0.0
194	0x00	0.0
195	0x00	0.0
196	0x00	0.0
197	0x00	0.0
198	0x00	0.0
199	0x00	0.0
200	0x00	0.0
201	0x00	0.0
202	0x00	0.0
203	0x00	0.0
204	0x00	0.0
205	0x00	0.0
206	0x00	0.0
207	0x00	0.0
208	0x00	0.0
209	0x00	0.0
210	0x00	0.0
211	0x00	0.0
212	0x00	0.0
213	0x00	0.0
214	0x00	0.0
215	0x00	0.0
216	0x00	0.0
217	0x00	0.0
218	0x00	0.0
219	0x00	0.0
220	0x00	0.0
221	0x00	0.0
222	0x00	0.0
223	0x00	0.0
224	0x00	0.0
225	0x00	0.0
226	0x00	0.0
227	0x00	0.0
228	0x00	0.0
229	0x00	0.0
230	0x00	0.0
231	0x00	0.0
232	0x00	0.0
233	0x00	0.0
234	0x00	0.0
235	0x00	0.0
236	0x00	0.0
237	0x00	0.0
238	0x00	0.0
239	0x00	0.0
240	0x00	0.0
241	0x00	0.0
242	0x00	0.0
243	0x00	0.0
244	0x00	0.0
245	0x00	0.0
246	0x00	0.0
247	0x00	0.0
248	0x00	0.0
249	0x00	0.0
250	0x00	0.0
251	0x00	0.0
252	0x00	0.0
253	0x00	0.0
254	0x00	0.0
255	0x00	0.0
